mountain_car_data/theta_linear.npy (npy, 848 bytes, 1 tensors)

array f8 [32, 3]
0	0x400da92e8de9521d	3.7076083266095012
1	0xc000db0280d6e3e6	-2.106938368375711
2	0xbfee3b62259666e0	-0.944748948491192
3	0x4006e2db5568424e	2.860769908184273
4	0xc01a8989014edf2c	-6.634311695517493
5	0x3ffd5fcdcf86cd39	1.8358896357065773
6	0xbff53b4a0cd5852c	-1.3269749165850255
7	0x40189aa4b5c12ba1	6.151018943705737
8	0x401725251f513753	5.786274422962225
9	0xbfa25f12407ba3af	-0.03588158642907701
10	0xbfa119c42208ebf2	-0.03339970508064728
11	0x3f7a713a527e704e	0.006455638715035473
12	0x401a5fdc0f854935	6.59361290217412
13	0xc016692e0862d56e	-5.602714663536387
14	0xc01097b9712bb9ca	-4.1481683428705285
15	0x402868a1609f6a03	12.204356212100725
16	0xbfe4405602770e6e	-0.6328535125871448
17	0x402ee30278a07d32	15.443378228751133
18	0xc01019d5e63284d3	-4.0252300232252365
19	0x4035729c5ad1bdb9	21.447698284345936
20	0x4044446b2d5b2835	40.53452078772572
21	0xbfda8d0f0475b2eb	-0.4148595374634129
22	0xbfdbe86ff1791d94	-0.4360618456016365
23	0x3faec37b075e8754	0.06008514847714133
24	0x40101093e02a04f5	4.016189100804003
25	0x4007853c76fcf83b	2.940056733698865
26	0xc021125969cfec3b	-8.535838419562529
27	0x40300985ba765694	16.037196782962
28	0x403ae1c726a917a4	26.88194505336982
29	0x402ca7cb3beeb595	14.327722428216285
30	0xc00d2d4ff3f222ad	-3.6471251543301464
31	0x40411696f3d6b5a1	34.17648170455801
32	0x405578b9201f8153	85.88629916264226
33	0xc0007155561dffcd	-2.0553385475068127
34	0xc0014590d32f803a	-2.1589676379080887
35	0xbfc7230d7c2db187	-0.18075722278025472
36	0x401d57e005892e28	7.33581551217825
37	0x40410f7e385361b2	34.12103942939156
38	0xc024c151d255b386	-10.377577374421673
39	0xc043bdcb9fa23f29	-39.48277659818843
40	0xc04432785f404ac9	-40.39429846419586
41	0xc04c27201b763d6b	-56.30566733621057
42	0x401c77c057e1d442	7.116944668921009
43	0x402c38a4776664dd	14.11062977909972
44	0x403b12bfc261bc23	27.073238514767706
45	0xc011a3c7d4ccabe4	-4.409941983215479
46	0xc0140dd64357ddd9	-5.0135126612071526
47	0xc001a241de10ea0a	-2.2042271946822938
48	0x403e139ced3cebe1	30.07661326157893
49	0x4049b61634512ebe	51.422552623405394
50	0xc0239636bfb87e57	-9.793386451026135
51	0xc04ef7c142a2b9ac	-61.9355853361661
52	0xc0527ee335923fbb	-73.98261775285839
53	0xc04ab5f3b0c47b8f	-53.4214993438137
54	0x402c85a38a41d876	14.261013336694514
55	0x3fd12dfcb1f0f9b1	0.26843182923394254
56	0xc038ec6317654fa9	-24.923387014612363
57	0xc010bbb24d4481dc	-4.183297354990341
58	0xc0158ea6bcca4bce	-5.389307927939582
59	0xc011c4c681f458a5	-4.4421634965312125
60	0x4040212d4a3f3b23	32.25919464194728
61	0x404013b904383c25	32.15408375497672
62	0xc01ddc34a8dcfad4	-7.46504463051561
63	0x402adbd524f79bc6	13.429360537744184
64	0x403229d61ad3c3b4	18.163423229885396
65	0x4030dfc74ea4660a	16.87413493646276
66	0x40150ed9f6d489c2	5.264503342363641
67	0x402ce7825f94b055	14.452166544819343
68	0x4027996b61f77672	11.799647389848563
69	0xbffc885fab8aaa39	-1.78329436310254
70	0xc0009ed57b953eec	-2.0775556235238266
71	0xc0087ed0d847c22c	-3.0619217774294807
72	0x4025c1fb05b04b9d	10.878868272562437
73	0x40233e1abe51b3ac	9.621297786210413
74	0xc00b9ba53a1090ce	-3.4509987388902124
75	0x40374720dc0569f5	23.27784514553237
76	0x403c3e240943cc0a	28.24273736863328
77	0x4030ca890d584c95	16.791153749520692
78	0xbffd10bef09f65a2	-1.8165883445093205
79	0x4022e9eac67af91b	9.456869318496095
80	0x402d01cc5ec467ca	14.50351234576728
81	0xbfd63659f68b789a	-0.3470673473037863
82	0x3fc51553bd45b81b	0.16471335164845943
83	0xbfeab4b70c31a6e4	-0.8345599401629582
84	0x3ff335601027566a	1.2005310660364565
85	0x3ff676a0172da7ab	1.4039612679866689
86	0xbfe8802bf02d6ca5	-0.7656459513631445
87	0x400ffc50b40431af	3.998200804117196
88	0x40181fc5dd75a0d6	6.031028232864818
89	0x3ffee3502f6bbcbe	1.9304963924767402
90	0xbff5b2358183ada2	-1.3560080584673888
91	0x3ff2c12dc6aa8093	1.1721627960578516
92	0x4003155439b35770	2.3854145534377764
93	0xbfa08976ceb2e013	-0.03229876778772236
94	0x3fcc6054e7b92d82	0.22168980898491603
95	0xbfb84d7ee8849c3e	-0.09493249108037191
